…
alize='batch', param_init=0, max_grad_norm=5, gpu=0, device='cuda', seed=3435, print_every=500, valid_every=-1, tensorboard_log_dir='', amp=False, early_stop=False, early_stop_patience=5)
2022-01-30 19:05:42,380:__main__:INFO: Train: 20 sents / 0 batches, Val: 20 sents / 14 batches
2022-01-30 19:05:42,380:__main__:INFO: Vocab size: 305
2022-01-30 19:05:45,665:__main__:INFO: model architecture
2022-01-30 19:05:45,666:__main__:INFO: FixedStackRNNG(
  (action_criterion): CrossEntropyLoss()
  (word_criterion): CrossEntropyLoss()
  (dropout): Dropout(p=0.3, inplace=True)
  (emb): Sequential(
    (0): Embedding(305, 256, padding_idx=0)
    (1): Dropout(p=0.3, inplace=True)
  )
  (rnng): RNNGCell(
    (dropout): Dropout(p=0.3, inplace=True)
    (nt_emb): Sequential(
      (0): Embedding(26, 256)
      (1): Dropout(p=0.3, inplace=True)
    )
    (stack_rnn): MultiLayerLSTMCell(
      (lstm): ModuleList(
        (0): LSTMCell(256, 256)
        (1): LSTMCell(256, 256)
      )
      (dropout_layer): Dropout(p=0.3, inplace=True)
    )
    (output): Sequential(
      (0): Dropout(p=0.3, inplace=True)
      (1): Linear(in_features=256, out_features=256, bias=True)
      (2): ReLU()
    )
    (composition): LSTMComposition(
      (rnn): LSTM(256, 256, batch_first=True, bidirectional=True)
      (output): Sequential(
        (0): Dropout(p=0.3, inplace=True)
        (1): Linear(in_features=512, out_features=256, bias=True)
        (2): ReLU()
      )
    )
    (initial_emb): Sequential(
      (0): Embedding(1, 256)
      (1): Dropout(p=0.3, inplace=True)
    )
  )
  (vocab_mlp): Linear(in_features=256, out_features=305, bias=True)
  (action_mlp): Linear(in_features=256, out_features=29, bias=True)
)
2022-01-30 19:05:45,667:__main__:INFO: Model total parameters: 2395214
2022-01-30 19:05:45,667:__main__:INFO: Starting epoch 1
2022-01-30 19:06:51,747:__main__:INFO: Args: Namespace(train_file='data/small-train.json', val_file='data/small-val.json', train_from='', sp_model='', fixed_stack=True, strategy='top_down', w_dim=256, h_dim=256, num_nts=26, nu
…
'batch', param_init=0, max_grad_norm=5, gpu=0, device='cuda', seed=3435, print_every=500, valid_every=-1, tensorboard_log_dir='', amp=False, early_stop=False, early_stop_patience=5)
2022-01-30 19:44:07,022:__main__:INFO: Train: 13796 sents / 0 batches, Val: 2299 sents / 76 batches
2022-01-30 19:44:07,023:__main__:INFO: Vocab size: 8381
2022-01-30 19:44:08,333:__main__:INFO: model architecture
2022-01-30 19:44:08,334:__main__:INFO: FixedStackRNNG(
  (action_criterion): CrossEntropyLoss()
  (word_criterion): CrossEntropyLoss()
  (dropout): Dropout(p=0.3, inplace=True)
  (emb): Sequential(
    (0): Embedding(8381, 256, padding_idx=0)
    (1): Dropout(p=0.3, inplace=True)
  )
  (rnng): RNNGCell(
    (dropout): Dropout(p=0.3, inplace=True)
    (nt_emb): Sequential(
      (0): Embedding(26, 256)
      (1): Dropout(p=0.3, inplace=True)
    )
    (stack_rnn): MultiLayerLSTMCell(
      (lstm): ModuleList(
        (0): LSTMCell(256, 256)
        (1): LSTMCell(256, 256)
      )
      (dropout_layer): Dropout(p=0.3, inplace=True)
    )
    (output): Sequential(
      (0): Dropout(p=0.3, inplace=True)
      (1): Linear(in_features=256, out_features=256, bias=True)
      (2): ReLU()
    )
    (composition): LSTMComposition(
      (rnn): LSTM(256, 256, batch_first=True, bidirectional=True)
      (output): Sequential(
        (0): Dropout(p=0.3, inplace=True)
        (1): Linear(in_features=512, out_features=256, bias=True)
        (2): ReLU()
      )
    )
    (initial_emb): Sequential(
      (0): Embedding(1, 256)
      (1): Dropout(p=0.3, inplace=True)
    )
  )
  (vocab_mlp): Linear(in_features=256, out_features=8381, bias=True)
  (action_mlp): Linear(in_features=256, out_features=29, bias=True)
)
2022-01-30 19:44:08,335:__main__:INFO: Model total parameters: 4470746
2022-01-30 19:44:08,335:__main__:INFO: Starting epoch 1
2022-01-30 19:44:22,042:__main__:INFO: Args: Namespace(train_file='data/small-train.json', val_file='data/small-val.json', train_from='', sp_model='', fixed_stack=True, strategy='top_down', w_dim=256, h_dim=256, num_nts=26, nu
…
e='batch', param_init=0, max_grad_norm=5, gpu=0, device='cuda', seed=3435, print_every=500, valid_every=-1, tensorboard_log_dir='', amp=False, early_stop=False, early_stop_patience=5)
2022-01-30 23:28:57,665:__main__:INFO: Train: 1375 sents / 0 batches, Val: 228 sents / 46 batches
2022-01-30 23:28:57,665:__main__:INFO: Vocab size: 1509
2022-01-30 23:28:58,899:__main__:INFO: model architecture
2022-01-30 23:28:58,899:__main__:INFO: FixedStackRNNG(
  (action_criterion): CrossEntropyLoss()
  (word_criterion): CrossEntropyLoss()
  (dropout): Dropout(p=0.3, inplace=True)
  (emb): Sequential(
    (0): Embedding(1509, 256, padding_idx=0)
    (1): Dropout(p=0.3, inplace=True)
  )
  (rnng): RNNGCell(
    (dropout): Dropout(p=0.3, inplace=True)
    (nt_emb): Sequential(
      (0): Embedding(26, 256)
      (1): Dropout(p=0.3, inplace=True)
    )
    (stack_rnn): MultiLayerLSTMCell(
      (lstm): ModuleList(
        (0): LSTMCell(256, 256)
        (1): LSTMCell(256, 256)
      )
      (dropout_layer): Dropout(p=0.3, inplace=True)
    )
    (output): Sequential(
      (0): Dropout(p=0.3, inplace=True)
      (1): Linear(in_features=256, out_features=256, bias=True)
      (2): ReLU()
    )
    (composition): LSTMComposition(
      (rnn): LSTM(256, 256, batch_first=True, bidirectional=True)
      (output): Sequential(
        (0): Dropout(p=0.3, inplace=True)
        (1): Linear(in_features=512, out_features=256, bias=True)
        (2): ReLU()
      )
    )
    (initial_emb): Sequential(
      (0): Embedding(1, 256)
      (1): Dropout(p=0.3, inplace=True)
    )
  )
  (vocab_mlp): Linear(in_features=256, out_features=1509, bias=True)
  (action_mlp): Linear(in_features=256, out_features=29, bias=True)
)
2022-01-30 23:28:58,900:__main__:INFO: Model total parameters: 2704642
2022-01-30 23:28:58,901:__main__:INFO: Starting epoch 1
